…
    \ id=\"6651fc53-d038-4f1a-8fc7-fc5fcbf6da78\"></div>\n<div class=\"output_subarea\
    \ output_widget_view\">\n<script type=\"text/javascript\">\nvar element = $('#6651fc53-d038-4f1a-8fc7-fc5fcbf6da78');\n\
    </script>\n<script type=\"application/vnd.jupyter.widget-view+json\">\n{\"model_id\"\
    : \"b2020f9c8c8f4c96b4437b02641ae31f\", \"version_minor\": 0, \"version_major\"\
    : 2}\n</script>\n</div>\n</div>\n<div class=\"output_area\">\n<div class=\"prompt\
    \ output_prompt\">Out[\_]:</div>\n<div class=\"output_text output_subarea output_execute_result\"\
    >\n<pre>Inception3(\n  (Conv2d_1a_3x3): BasicConv2d(\n    (conv): Conv2d(3, 32,\
    \ kernel_size=(3, 3), stride=(2, 2), bias=False)\n    (bn): BatchNorm2d(32, eps=0.001,\
    \ momentum=0.1, affine=True, track_running_stats=True)\n  )\n  (Conv2d_2a_3x3):\
    \ BasicConv2d(\n    (conv): Conv2d(32, 32, kernel_size=(3, 3), stride=(1, 1),\
    \ bias=False)\n    (bn): BatchNorm2d(32, eps=0.001, momentum=0.1, affine=True,\
    \ track_running_stats=True)\n  )\n  (Conv2d_2b_3x3): BasicConv2d(\n    (conv):\
    \ Conv2d(32, 64, kernel_size=(3, 3), stride=(1, 1), padding=(1, 1), bias=False)\n\
    \    (bn): BatchNorm2d(64, eps=0.001, momentum=0.1, affine=True, track_running_stats=True)\n\
    \  )\n  (maxpool1): MaxPool2d(kernel_size=3, stride=2, padding=0, dilation=1,\
    \ ceil_mode=False)\n  (Conv2d_3b_1x1): BasicConv2d(\n    (conv): Conv2d(64, 80,\
    \ kernel_size=(1, 1), stride=(1, 1), bias=False)\n    (bn): BatchNorm2d(80, eps=0.001,\
    \ momentum=0.1, affine=True, track_running_stats=True)\n  )\n  (Conv2d_4a_3x3):\
    \ BasicConv2d(\n    (conv): Conv2d(80, 192, kernel_size=(3, 3), stride=(1, 1),\
    \ bias=False)\n    (bn): BatchNorm2d(192, eps=0.001, momentum=0.1, affine=True,\
    \ track_running_stats=True)\n  )\n  (maxpool2): MaxPool2d(kernel_size=3, stride=2,\
    \ padding=0, dilation=1, ceil_mode=False)\n  (Mixed_5b): InceptionA(\n    (branch1x1):\
    \ BasicConv2d(\n      (conv): Conv2d(192, 64, kernel_size=(1, 1), stride=(1, 1),\
    \ bias=False)\n      (bn): BatchNorm2d(64, eps=0.001, momentum=0.1, affine=True,\
    \ track_running_stats=True)\n    )\n    (branch5x5_1): BasicConv2d(\n      (conv):\
    \ Conv2d(192, 48, kernel_size=(1, 1), stride=(1, 1), bias=False)\n      (bn):\
    \ BatchNorm2d(48, eps=0.001, momentum=0.1, affine=True, track_running_stats=True)\n\
    \    )\n    (branch5x5_2): BasicConv2d(\n      (conv): Conv2d(48, 64, kernel_size=(5,\
    \ 5), stride=(1, 1), padding=(2, 2), bias=False)\n      (bn): BatchNorm2d(64,\
    \ eps=0.001, momentum=0.1, affine=True, track_running_stats=True)\n    )\n   \
    \ (branch3x3dbl_1): BasicConv2d(\n      (conv): Conv2d(192, 64, kernel_size=(1,\
    \ 1), stride=(1, 1), bias=False)\n      (bn): BatchNorm2d(64, eps=0.001, momentum=0.1,\
    \ affine=True, track_running_stats=True)\n    )\n    (branch3x3dbl_2): BasicConv2d(\n\
    \      (conv): Conv2d(64, 96, kernel_size=(3, 3), stride=(1, 1), padding=(1, 1),\
    \ bias=False)\n      (bn): BatchNorm2d(96, eps=0.001, momentum=0.1, affine=True,\
    \ track_running_stats=True)\n    )\n    (branch3x3dbl_3): BasicConv2d(\n     \
    \ (conv): Conv2d(96, 96, kernel_size=(3, 3), stride=(1, 1), padding=(1, 1), bias=False)\n\
    \      (bn): BatchNorm2d(96, eps=0.001, momentum=0.1, affine=True, track_running_stats=True)\n\
    \    )\n    (branch_pool): BasicConv2d(\n      (conv): Conv2d(192, 32, kernel_size=(1,\
    \ 1), stride=(1, 1), bias=False)\n      (bn): BatchNorm2d(32, eps=0.001, momentum=0.1,\
    \ affine=True, track_running_stats=True)\n    )\n  )\n  (Mixed_5c): InceptionA(\n\
    \    (branch1x1): BasicConv2d(\n      (conv): Conv2d(256, 64, kernel_size=(1,\
    \ 1), stride=(1, 1), bias=False)\n      (bn): BatchNorm2d(64, eps=0.001, momentum=0.1,\
    \ affine=True, track_running_stats=True)\n    )\n    (branch5x5_1): BasicConv2d(\n\
    \      (conv): Conv2d(256, 48, kernel_size=(1, 1), stride=(1, 1), bias=False)\n\
    \      (bn): BatchNorm2d(48, eps=0.001, momentum=0.1, affine=True, track_running_stats=True)\n\
    \    )\n    (branch5x5_2): BasicConv2d(\n      (conv): Conv2d(48, 64, kernel_size=(5,\
    \ 5), stride=(1, 1), padding=(2, 2), bias=False)\n      (bn): BatchNorm2d(64,\
    \ eps=0.001, momentum=0.1, affine=True, track_running_stats=True)\n    )\n   \
    \ (branch3x3dbl_1): BasicConv2d(\n      (conv): Conv2d(256, 64, kernel_size=(1,\
    \ 1), stride=(1, 1), bias=False)\n      (bn): BatchNorm2d(64, eps=0.001, momentum=0.1,\
    \ affine=True, track_running_stats=True)\n    )\n    (branch3x3dbl_2): BasicConv2d(\n\
    \      (conv): Conv2d(64, 96, kernel_size=(3, 3), stride=(1, 1), padding=(1, 1),\
    \ bias=False)\n      (bn): BatchNorm2d(96, eps=0.001, momentum=0.1, affine=True,\
    \ track_running_stats=True)\n    )\n    (branch3x3dbl_3): BasicConv2d(\n     \
    \ (conv): Conv2d(96, 96, kernel_size=(3, 3), stride=(1, 1), padding=(1, 1), bias=False)\n\
    \      (bn): BatchNorm2d(96, eps=0.001, momentum=0.1, affine=True, track_running_stats=True)\n\
    \    )\n    (branch_pool): BasicConv2d(\n      (conv): Conv2d(256, 64, kernel_size=(1,\
    \ 1), stride=(1, 1), bias=False)\n      (bn): BatchNorm2d(64, eps=0.001, momentum=0.1,\
    \ affine=True, track_running_stats=True)\n    )\n  )\n  (Mixed_5d): InceptionA(\n\
    \    (branch1x1): BasicConv2d(\n      (conv): Conv2d(288, 64, kernel_size=(1,\
    \ 1), stride=(1, 1), bias=False)\n      (bn): BatchNorm2d(64, eps=0.001, momentum=0.1,\
    \ affine=True, track_running_stats=True)\n    )\n    (branch5x5_1): BasicConv2d(\n\
    \      (conv): Conv2d(288, 48, kernel_size=(1, 1), stride=(1, 1), bias=False)\n\
    \      (bn): BatchNorm2d(48, eps=0.001, momentum=0.1, affine=True, track_running_stats=True)\n\
    \    )\n    (branch5x5_2): BasicConv2d(\n      (conv): Conv2d(48, 64, kernel_size=(5,\
    \ 5), stride=(1, 1), padding=(2, 2), bias=False)\n      (bn): BatchNorm2d(64,\
    \ eps=0.001, momentum=0.1, affine=True, track_running_stats=True)\n    )\n   \
    \ (branch3x3dbl_1): BasicConv2d(\n      (conv): Conv2d(288, 64, kernel_size=(1,\
    \ 1), stride=(1, 1), bias=False)\n      (bn): BatchNorm2d(64, eps=0.001, momentum=0.1,\
    \ affine=True, track_running_stats=True)\n    )\n    (branch3x3dbl_2): BasicConv2d(\n\
    \      (conv): Conv2d(64, 96, kernel_size=(3, 3), stride=(1, 1), padding=(1, 1),\
    \ bias=False)\n      (bn): BatchNorm2d(96, eps=0.001, momentum=0.1, affine=True,\
    \ track_running_stats=True)\n    )\n    (branch3x3dbl_3): BasicConv2d(\n     \
    \ (conv): Conv2d(96, 96, kernel_size=(3, 3), stride=(1, 1), padding=(1, 1), bias=False)\n\
    \      (bn): BatchNorm2d(96, eps=0.001, momentum=0.1, affine=True, track_running_stats=True)\n\
    \    )\n    (branch_pool): BasicConv2d(\n      (conv): Conv2d(288, 64, kernel_size=(1,\
    \ 1), stride=(1, 1), bias=False)\n      (bn): BatchNorm2d(64, eps=0.001, momentum=0.1,\
    \ affine=True, track_running_stats=True)\n    )\n  )\n  (Mixed_6a): InceptionB(\n\
    \    (branch3x3): BasicConv2d(\n      (conv): Conv2d(288, 384, kernel_size=(3,\
    \ 3), stride=(2, 2), bias=False)\n      (bn): BatchNorm2d(384, eps=0.001, momentum=0.1,\
    \ affine=True, track_running_stats=True)\n    )\n    (branch3x3dbl_1): BasicConv2d(\n\
    \      (conv): Conv2d(288, 64, kernel_size=(1, 1), stride=(1, 1), bias=False)\n\
    \      (bn): BatchNorm2d(64, eps=0.001, momentum=0.1, affine=True, track_running_stats=True)\n\
    \    )\n    (branch3x3dbl_2): BasicConv2d(\n      (conv): Conv2d(64, 96, kernel_size=(3,\
    \ 3), stride=(1, 1), padding=(1, 1), bias=False)\n      (bn): BatchNorm2d(96,\
    \ eps=0.001, momentum=0.1, affine=True, track_running_stats=True)\n    )\n   \
    \ (branch3x3dbl_3): BasicConv2d(\n      (conv): Conv2d(96, 96, kernel_size=(3,\
    \ 3), stride=(2, 2), bias=False)\n      (bn): BatchNorm2d(96, eps=0.001, momentum=0.1,\
    \ affine=True, track_running_stats=True)\n    )\n  )\n  (Mixed_6b): InceptionC(\n\
    \    (branch1x1): BasicConv2d(\n      (conv): Conv2d(768, 192, kernel_size=(1,\
    \ 1), stride=(1, 1), bias=False)\n      (bn): BatchNorm2d(192, eps=0.001, momentum=0.1,\
    \ affine=True, track_running_stats=True)\n    )\n    (branch7x7_1): BasicConv2d(\n\
    \      (conv): Conv2d(768, 128, kernel_size=(1, 1), stride=(1, 1), bias=False)\n\
    \      (bn): BatchNorm2d(128, eps=0.001, momentum=0.1, affine=True, track_running_stats=True)\n\
    \    )\n    (branch7x7_2): BasicConv2d(\n      (conv): Conv2d(128, 128, kernel_size=(1,\
    \ 7), stride=(1, 1), padding=(0, 3), bias=False)\n      (bn): BatchNorm2d(128,\
    \ eps=0.001, momentum=0.1, affine=True, track_running_stats=True)\n    )\n   \
    \ (branch7x7_3): BasicConv2d(\n      (conv): Conv2d(128, 192, kernel_size=(7,\
    \ 1), stride=(1, 1), padding=(3, 0), bias=False)\n      (bn): BatchNorm2d(192,\
    \ eps=0.001, momentum=0.1, affine=True, track_running_stats=True)\n    )\n   \
    \ (branch7x7dbl_1): BasicConv2d(\n      (conv): Conv2d(768, 128, kernel_size=(1,\
    \ 1), stride=(1, 1), bias=False)\n      (bn): BatchNorm2d(128, eps=0.001, momentum=0.1,\
    \ affine=True, track_running_stats=True)\n    )\n    (branch7x7dbl_2): BasicConv2d(\n\
    \      (conv): Conv2d(128, 128, kernel_size=(7, 1), stride=(1, 1), padding=(3,\
    \ 0), bias=False)\n      (bn): BatchNorm2d(128, eps=0.001, momentum=0.1, affine=True,\
    \ track_running_stats=True)\n    )\n    (branch7x7dbl_3): BasicConv2d(\n     \
    \ (conv): Conv2d(128, 128, kernel_size=(1, 7), stride=(1, 1), padding=(0, 3),\
    \ bias=False)\n      (bn): BatchNorm2d(128, eps=0.001, momentum=0.1, affine=True,\
    \ track_running_stats=True)\n    )\n    (branch7x7dbl_4): BasicConv2d(\n     \
    \ (conv): Conv2d(128, 128, kernel_size=(7, 1), stride=(1, 1), padding=(3, 0),\
    \ bias=False)\n      (bn): BatchNorm2d(128, eps=0.001, momentum=0.1, affine=True,\
    \ track_running_stats=True)\n    )\n    (branch7x7dbl_5): BasicConv2d(\n     \
    \ (conv): Conv2d(128, 192, kernel_size=(1, 7), stride=(1, 1), padding=(0, 3),\
    \ bias=False)\n      (bn): BatchNorm2d(192, eps=0.001, momentum=0.1, affine=True,\
    \ track_running_stats=True)\n    )\n    (branch_pool): BasicConv2d(\n      (conv):\
    \ Conv2d(768, 192, kernel_size=(1, 1), stride=(1, 1), bias=False)\n      (bn):\
    \ BatchNorm2d(192, eps=0.001, momentum=0.1, affine=True, track_running_stats=True)\n\
    \    )\n  )\n  (Mixed_6c): InceptionC(\n    (branch1x1): BasicConv2d(\n      (conv):\
    \ Conv2d(768, 192, kernel_size=(1, 1), stride=(1, 1), bias=False)\n      (bn):\
    \ BatchNorm2d(192, eps=0.001, momentum=0.1, affine=True, track_running_stats=True)\n\
    \    )\n    (branch7x7_1): BasicConv2d(\n      (conv): Conv2d(768, 160, kernel_size=(1,\
    \ 1), stride=(1, 1), bias=False)\n      (bn): BatchNorm2d(160, eps=0.001, momentum=0.1,\
    \ affine=True, track_running_stats=True)\n    )\n    (branch7x7_2): BasicConv2d(\n\
    \      (conv): Conv2d(160, 160, kernel_size=(1, 7), stride=(1, 1), padding=(0,\
    \ 3), bias=False)\n      (bn): BatchNorm2d(160, eps=0.001, momentum=0.1, affine=True,\
    \ track_running_stats=True)\n    )\n    (branch7x7_3): BasicConv2d(\n      (conv):\
    \ Conv2d(160, 192, kernel_size=(7, 1), stride=(1, 1), padding=(3, 0), bias=False)\n\
    \      (bn): BatchNorm2d(192, eps=0.001, momentum=0.1, affine=True, track_running_stats=True)\n\
    \    )\n    (branch7x7dbl_1): BasicConv2d(\n      (conv): Conv2d(768, 160, kernel_size=(1,\
    \ 1), stride=(1, 1), bias=False)\n      (bn): BatchNorm2d(160, eps=0.001, momentum=0.1,\
    \ affine=True, track_running_stats=True)\n    )\n    (branch7x7dbl_2): BasicConv2d(\n\
    \      (conv): Conv2d(160, 160, kernel_size=(7, 1), stride=(1, 1), padding=(3,\
    \ 0), bias=False)\n      (bn): BatchNorm2d(160, eps=0.001, momentum=0.1, affine=True,\
    \ track_running_stats=True)\n    )\n    (branch7x7dbl_3): BasicConv2d(\n     \
    \ (conv): Conv2d(160, 160, kernel_size=(1, 7), stride=(1, 1), padding=(0, 3),\
    \ bias=False)\n      (bn): BatchNorm2d(160, eps=0.001, momentum=0.1, affine=True,\
    \ track_running_stats=True)\n    )\n    (branch7x7dbl_4): BasicConv2d(\n     \
    \ (conv): Conv2d(160, 160, kernel_size=(7, 1), stride=(1, 1), padding=(3, 0),\
    \ bias=False)\n      (bn): BatchNorm2d(160, eps=0.001, momentum=0.1, affine=True,\
    \ track_running_stats=True)\n    )\n    (branch7x7dbl_5): BasicConv2d(\n     \
    \ (conv): Conv2d(160, 192, kernel_size=(1, 7), stride=(1, 1), padding=(0, 3),\
    \ bias=False)\n      (bn): BatchNorm2d(192, eps=0.001, momentum=0.1, affine=True,\
    \ track_running_stats=True)\n    )\n    (branch_pool): BasicConv2d(\n      (conv):\
    \ Conv2d(768, 192, kernel_size=(1, 1), stride=(1, 1), bias=False)\n      (bn):\
    \ BatchNorm2d(192, eps=0.001, momentum=0.1, affine=True, track_running_stats=True)\n\
    \    )\n  )\n  (Mixed_6d): InceptionC(\n    (branch1x1): BasicConv2d(\n      (conv):\
    \ Conv2d(768, 192, kernel_size=(1, 1), stride=(1, 1), bias=False)\n      (bn):\
    \ BatchNorm2d(192, eps=0.001, momentum=0.1, affine=True, track_running_stats=True)\n\
    \    )\n    (branch7x7_1): BasicConv2d(\n      (conv): Conv2d(768, 160, kernel_size=(1,\
    \ 1), stride=(1, 1), bias=False)\n      (bn): BatchNorm2d(160, eps=0.001, momentum=0.1,\
    \ affine=True, track_running_stats=True)\n    )\n    (branch7x7_2): BasicConv2d(\n\
    \      (conv): Conv2d(160, 160, kernel_size=(1, 7), stride=(1, 1), padding=(0,\
    \ 3), bias=False)\n      (bn): BatchNorm2d(160, eps=0.001, momentum=0.1, affine=True,\
    \ track_running_stats=True)\n    )\n    (branch7x7_3): BasicConv2d(\n      (conv):\
    \ Conv2d(160, 192, kernel_size=(7, 1), stride=(1, 1), padding=(3, 0), bias=False)\n\
    \      (bn): BatchNorm2d(192, eps=0.001, momentum=0.1, affine=True, track_running_stats=True)\n\
    \    )\n    (branch7x7dbl_1): BasicConv2d(\n      (conv): Conv2d(768, 160, kernel_size=(1,\
    \ 1), stride=(1, 1), bias=False)\n      (bn): BatchNorm2d(160, eps=0.001, momentum=0.1,\
    \ affine=True, track_running_stats=True)\n    )\n    (branch7x7dbl_2): BasicConv2d(\n\
    \      (conv): Conv2d(160, 160, kernel_size=(7, 1), stride=(1, 1), padding=(3,\
    \ 0), bias=False)\n      (bn): BatchNorm2d(160, eps=0.001, momentum=0.1, affine=True,\
    \ track_running_stats=True)\n    )\n    (branch7x7dbl_3): BasicConv2d(\n     \
    \ (conv): Conv2d(160, 160, kernel_size=(1, 7), stride=(1, 1), padding=(0, 3),\
    \ bias=False)\n      (bn): BatchNorm2d(160, eps=0.001, momentum=0.1, affine=True,\
    \ track_running_stats=True)\n    )\n    (branch7x7dbl_4): BasicConv2d(\n     \
    \ (conv): Conv2d(160, 160, kernel_size=(7, 1), stride=(1, 1), padding=(3, 0),\
    \ bias=False)\n      (bn): BatchNorm2d(160, eps=0.001, momentum=0.1, affine=True,\
    \ track_running_stats=True)\n    )\n    (branch7x7dbl_5): BasicConv2d(\n     \
    \ (conv): Conv2d(160, 192, kernel_size=(1, 7), stride=(1, 1), padding=(0, 3),\
    \ bias=False)\n      (bn): BatchNorm2d(192, eps=0.001, momentum=0.1, affine=True,\
    \ track_running_stats=True)\n    )\n    (branch_pool): BasicConv2d(\n      (conv):\
    \ Conv2d(768, 192, kernel_size=(1, 1), stride=(1, 1), bias=False)\n      (bn):\
    \ BatchNorm2d(192, eps=0.001, momentum=0.1, affine=True, track_running_stats=True)\n\
    \    )\n  )\n  (Mixed_6e): InceptionC(\n    (branch1x1): BasicConv2d(\n      (conv):\
    \ Conv2d(768, 192, kernel_size=(1, 1), stride=(1, 1), bias=False)\n      (bn):\
    \ BatchNorm2d(192, eps=0.001, momentum=0.1, affine=True, track_running_stats=True)\n\
    \    )\n    (branch7x7_1): BasicConv2d(\n      (conv): Conv2d(768, 192, kernel_size=(1,\
    \ 1), stride=(1, 1), bias=False)\n      (bn): BatchNorm2d(192, eps=0.001, momentum=0.1,\
    \ affine=True, track_running_stats=True)\n    )\n    (branch7x7_2): BasicConv2d(\n\
    \      (conv): Conv2d(192, 192, kernel_size=(1, 7), stride=(1, 1), padding=(0,\
    \ 3), bias=False)\n      (bn): BatchNorm2d(192, eps=0.001, momentum=0.1, affine=True,\
    \ track_running_stats=True)\n    )\n    (branch7x7_3): BasicConv2d(\n      (conv):\
    \ Conv2d(192, 192, kernel_size=(7, 1), stride=(1, 1), padding=(3, 0), bias=False)\n\
    \      (bn): BatchNorm2d(192, eps=0.001, momentum=0.1, affine=True, track_running_stats=True)\n\
    \    )\n    (branch7x7dbl_1): BasicConv2d(\n      (conv): Conv2d(768, 192, kernel_size=(1,\
    \ 1), stride=(1, 1), bias=False)\n      (bn): BatchNorm2d(192, eps=0.001, momentum=0.1,\
    \ affine=True, track_running_stats=True)\n    )\n    (branch7x7dbl_2): BasicConv2d(\n\
    \      (conv): Conv2d(192, 192, kernel_size=(7, 1), stride=(1, 1), padding=(3,\
    \ 0), bias=False)\n      (bn): BatchNorm2d(192, eps=0.001, momentum=0.1, affine=True,\
    \ track_running_stats=True)\n    )\n    (branch7x7dbl_3): BasicConv2d(\n     \
    \ (conv): Conv2d(192, 192, kernel_size=(1, 7), stride=(1, 1), padding=(0, 3),\
    \ bias=False)\n      (bn): BatchNorm2d(192, eps=0.001, momentum=0.1, affine=True,\
    \ track_running_stats=True)\n    )\n    (branch7x7dbl_4): BasicConv2d(\n     \
    \ (conv): Conv2d(192, 192, kernel_size=(7, 1), stride=(1, 1), padding=(3, 0),\
    \ bias=False)\n      (bn): BatchNorm2d(192, eps=0.001, momentum=0.1, affine=True,\
    \ track_running_stats=True)\n    )\n    (branch7x7dbl_5): BasicConv2d(\n     \
    \ (conv): Conv2d(192, 192, kernel_size=(1, 7), stride=(1, 1), padding=(0, 3),\
    \ bias=False)\n      (bn): BatchNorm2d(192, eps=0.001, momentum=0.1, affine=True,\
    \ track_running_stats=True)\n    )\n    (branch_pool): BasicConv2d(\n      (conv):\
    \ Conv2d(768, 192, kernel_size=(1, 1), stride=(1, 1), bias=False)\n      (bn):\
    \ BatchNorm2d(192, eps=0.001, momentum=0.1, affine=True, track_running_stats=True)\n\
    \    )\n  )\n  (AuxLogits): InceptionAux(\n    (conv0): BasicConv2d(\n      (conv):\
    \ Conv2d(768, 128, kernel_size=(1, 1), stride=(1, 1), bias=False)\n      (bn):\
    \ BatchNorm2d(128, eps=0.001, momentum=0.1, affine=True, track_running_stats=True)\n\
    \    )\n    (conv1): BasicConv2d(\n      (conv): Conv2d(128, 768, kernel_size=(5,\
    \ 5), stride=(1, 1), bias=False)\n      (bn): BatchNorm2d(768, eps=0.001, momentum=0.1,\
    \ affine=True, track_running_stats=True)\n    )\n    (fc): Linear(in_features=768,\
    \ out_features=1000, bias=True)\n  )\n  (Mixed_7a): InceptionD(\n    (branch3x3_1):\
    \ BasicConv2d(\n      (conv): Conv2d(768, 192, kernel_size=(1, 1), stride=(1,\
    \ 1), bias=False)\n      (bn): BatchNorm2d(192, eps=0.001, momentum=0.1, affine=True,\
    \ track_running_stats=True)\n    )\n    (branch3x3_2): BasicConv2d(\n      (conv):\
    \ Conv2d(192, 320, kernel_size=(3, 3), stride=(2, 2), bias=False)\n      (bn):\
    \ BatchNorm2d(320, eps=0.001, momentum=0.1, affine=True, track_running_stats=True)\n\
    \    )\n    (branch7x7x3_1): BasicConv2d(\n      (conv): Conv2d(768, 192, kernel_size=(1,\
    \ 1), stride=(1, 1), bias=False)\n      (bn): BatchNorm2d(192, eps=0.001, momentum=0.1,\
    \ affine=True, track_running_stats=True)\n    )\n    (branch7x7x3_2): BasicConv2d(\n\
    \      (conv): Conv2d(192, 192, kernel_size=(1, 7), stride=(1, 1), padding=(0,\
    \ 3), bias=False)\n      (bn): BatchNorm2d(192, eps=0.001, momentum=0.1, affine=True,\
    \ track_running_stats=True)\n    )\n    (branch7x7x3_3): BasicConv2d(\n      (conv):\
    \ Conv2d(192, 192, kernel_size=(7, 1), stride=(1, 1), padding=(3, 0), bias=False)\n\
    \      (bn): BatchNorm2d(192, eps=0.001, momentum=0.1, affine=True, track_running_stats=True)\n\
    \    )\n    (branch7x7x3_4): BasicConv2d(\n      (conv): Conv2d(192, 192, kernel_size=(3,\
    \ 3), stride=(2, 2), bias=False)\n      (bn): BatchNorm2d(192, eps=0.001, momentum=0.1,\
    \ affine=True, track_running_stats=True)\n    )\n  )\n  (Mixed_7b): InceptionE(\n\
    \    (branch1x1): BasicConv2d(\n      (conv): Conv2d(1280, 320, kernel_size=(1,\
    \ 1), stride=(1, 1), bias=False)\n      (bn): BatchNorm2d(320, eps=0.001, momentum=0.1,\
    \ affine=True, track_running_stats=True)\n    )\n    (branch3x3_1): BasicConv2d(\n\
    \      (conv): Conv2d(1280, 384, kernel_size=(1, 1), stride=(1, 1), bias=False)\n\
    \      (bn): BatchNorm2d(384, eps=0.001, momentum=0.1, affine=True, track_running_stats=True)\n\
    \    )\n    (branch3x3_2a): BasicConv2d(\n      (conv): Conv2d(384, 384, kernel_size=(1,\
    \ 3), stride=(1, 1), padding=(0, 1), bias=False)\n      (bn): BatchNorm2d(384,\
    \ eps=0.001, momentum=0.1, affine=True, track_running_stats=True)\n    )\n   \
    \ (branch3x3_2b): BasicConv2d(\n      (conv): Conv2d(384, 384, kernel_size=(3,\
    \ 1), stride=(1, 1), padding=(1, 0), bias=False)\n      (bn): BatchNorm2d(384,\
    \ eps=0.001, momentum=0.1, affine=True, track_running_stats=True)\n    )\n   \
    \ (branch3x3dbl_1): BasicConv2d(\n      (conv): Conv2d(1280, 448, kernel_size=(1,\
    \ 1), stride=(1, 1), bias=False)\n      (bn): BatchNorm2d(448, eps=0.001, momentum=0.1,\
    \ affine=True, track_running_stats=True)\n    )\n    (branch3x3dbl_2): BasicConv2d(\n\
    \      (conv): Conv2d(448, 384, kernel_size=(3, 3), stride=(1, 1), padding=(1,\
    \ 1), bias=False)\n      (bn): BatchNorm2d(384, eps=0.001, momentum=0.1, affine=True,\
    \ track_running_stats=True)\n    )\n    (branch3x3dbl_3a): BasicConv2d(\n    \
    \  (conv): Conv2d(384, 384, kernel_size=(1, 3), stride=(1, 1), padding=(0, 1),\
    \ bias=False)\n      (bn): BatchNorm2d(384, eps=0.001, momentum=0.1, affine=True,\
    \ track_running_stats=True)\n    )\n    (branch3x3dbl_3b): BasicConv2d(\n    \
    \  (conv): Conv2d(384, 384, kernel_size=(3, 1), stride=(1, 1), padding=(1, 0),\
    \ bias=False)\n      (bn): BatchNorm2d(384, eps=0.001, momentum=0.1, affine=True,\
    \ track_running_stats=True)\n    )\n    (branch_pool): BasicConv2d(\n      (conv):\
    \ Conv2d(1280, 192, kernel_size=(1, 1), stride=(1, 1), bias=False)\n      (bn):\
    \ BatchNorm2d(192, eps=0.001, momentum=0.1, affine=True, track_running_stats=True)\n\
    \    )\n  )\n  (Mixed_7c): InceptionE(\n    (branch1x1): BasicConv2d(\n      (conv):\
    \ Conv2d(2048, 320, kernel_size=(1, 1), stride=(1, 1), bias=False)\n      (bn):\
    \ BatchNorm2d(320, eps=0.001, momentum=0.1, affine=True, track_running_stats=True)\n\
    \    )\n    (branch3x3_1): BasicConv2d(\n      (conv): Conv2d(2048, 384, kernel_size=(1,\
    \ 1), stride=(1, 1), bias=False)\n      (bn): BatchNorm2d(384, eps=0.001, momentum=0.1,\
    \ affine=True, track_running_stats=True)\n    )\n    (branch3x3_2a): BasicConv2d(\n\
    \      (conv): Conv2d(384, 384, kernel_size=(1, 3), stride=(1, 1), padding=(0,\
    \ 1), bias=False)\n      (bn): BatchNorm2d(384, eps=0.001, momentum=0.1, affine=True,\
    \ track_running_stats=True)\n    )\n    (branch3x3_2b): BasicConv2d(\n      (conv):\
    \ Conv2d(384, 384, kernel_size=(3, 1), stride=(1, 1), padding=(1, 0), bias=False)\n\
    \      (bn): BatchNorm2d(384, eps=0.001, momentum=0.1, affine=True, track_running_stats=True)\n\
    \    )\n    (branch3x3dbl_1): BasicConv2d(\n      (conv): Conv2d(2048, 448, kernel_size=(1,\
    \ 1), stride=(1, 1), bias=False)\n      (bn): BatchNorm2d(448, eps=0.001, momentum=0.1,\
    \ affine=True, track_running_stats=True)\n    )\n    (branch3x3dbl_2): BasicConv2d(\n\
    \      (conv): Conv2d(448, 384, kernel_size=(3, 3), stride=(1, 1), padding=(1,\
    \ 1), bias=False)\n      (bn): BatchNorm2d(384, eps=0.001, momentum=0.1, affine=True,\
    \ track_running_stats=True)\n    )\n    (branch3x3dbl_3a): BasicConv2d(\n    \
    \  (conv): Conv2d(384, 384, kernel_size=(1, 3), stride=(1, 1), padding=(0, 1),\
    \ bias=False)\n      (bn): BatchNorm2d(384, eps=0.001, momentum=0.1, affine=True,\
    \ track_running_stats=True)\n    )\n    (branch3x3dbl_3b): BasicConv2d(\n    \
    \  (conv): Conv2d(384, 384, kernel_size=(3, 1), stride=(1, 1), padding=(1, 0),\
    \ bias=False)\n      (bn): BatchNorm2d(384, eps=0.001, momentum=0.1, affine=True,\
    \ track_running_stats=True)\n    )\n    (branch_pool): BasicConv2d(\n      (conv):\
    \ Conv2d(2048, 192, kernel_size=(1, 1), stride=(1, 1), bias=False)\n      (bn):\
    \ BatchNorm2d(192, eps=0.001, momentum=0.1, affine=True, track_running_stats=True)\n\
    \    )\n  )\n  (avgpool): AdaptiveAvgPool2d(output_size=(1, 1))\n  (dropout):\
    \ Dropout(p=0.5, inplace=False)\n  (fc): Linear(in_features=2048, out_features=1000,\
    \ bias=True)\n)</pre>\n</div>\n</div>\n</div>\n</div>\n</div>\n<div class=\"cell\
    \ border-box-sizing text_cell rendered\"><div class=\"prompt input_prompt\">\n\
    </div><div class=\"inner_cell\">\n<div class=\"text_cell_render border-box-sizing\
    \ rendered_html\">\n<h1 id=\"Modify-for-CIFAR10\">Modify for CIFAR10<a class=\"\
    anchor-link\" href=\"#Modify-for-CIFAR10\">\xB6</a></h1><p>Imagenet has 1000 classes,\
…
    \ class=\"n\">trainloader</span><span class=\"p\">,</span> <span class=\"n\">valloader</span><span\
    \ class=\"p\">,</span> <span class=\"n\">testloader</span><span class=\"p\">,</span>\
    \ <span class=\"n\">device</span><span class=\"p\">)</span>\n<span class=\"n\"\
    >net</span>\n</pre></div>\n</div>\n</div>\n</div>\n<div class=\"output_wrapper\"\
    >\n<div class=\"output\">\n<div class=\"output_area\">\n<div class=\"prompt output_prompt\"\
    >Out[\_]:</div>\n<div class=\"output_text output_subarea output_execute_result\"\
    >\n<pre>Inception3(\n  (Conv2d_1a_3x3): BasicConv2d(\n    (conv): Conv2d(3, 32,\
    \ kernel_size=(3, 3), stride=(2, 2), bias=False)\n    (bn): BatchNorm2d(32, eps=0.001,\
    \ momentum=0.1, affine=True, track_running_stats=True)\n  )\n  (Conv2d_2a_3x3):\
    \ BasicConv2d(\n    (conv): Conv2d(32, 32, kernel_size=(3, 3), stride=(1, 1),\
    \ bias=False)\n    (bn): BatchNorm2d(32, eps=0.001, momentum=0.1, affine=True,\
    \ track_running_stats=True)\n  )\n  (Conv2d_2b_3x3): BasicConv2d(\n    (conv):\
    \ Conv2d(32, 64, kernel_size=(3, 3), stride=(1, 1), padding=(1, 1), bias=False)\n\
    \    (bn): BatchNorm2d(64, eps=0.001, momentum=0.1, affine=True, track_running_stats=True)\n\
    \  )\n  (maxpool1): MaxPool2d(kernel_size=3, stride=2, padding=0, dilation=1,\
    \ ceil_mode=False)\n  (Conv2d_3b_1x1): BasicConv2d(\n    (conv): Conv2d(64, 80,\
    \ kernel_size=(1, 1), stride=(1, 1), bias=False)\n    (bn): BatchNorm2d(80, eps=0.001,\
    \ momentum=0.1, affine=True, track_running_stats=True)\n  )\n  (Conv2d_4a_3x3):\
    \ BasicConv2d(\n    (conv): Conv2d(80, 192, kernel_size=(3, 3), stride=(1, 1),\
    \ bias=False)\n    (bn): BatchNorm2d(192, eps=0.001, momentum=0.1, affine=True,\
    \ track_running_stats=True)\n  )\n  (maxpool2): MaxPool2d(kernel_size=3, stride=2,\
    \ padding=0, dilation=1, ceil_mode=False)\n  (Mixed_5b): InceptionA(\n    (branch1x1):\
    \ BasicConv2d(\n      (conv): Conv2d(192, 64, kernel_size=(1, 1), stride=(1, 1),\
    \ bias=False)\n      (bn): BatchNorm2d(64, eps=0.001, momentum=0.1, affine=True,\
    \ track_running_stats=True)\n    )\n    (branch5x5_1): BasicConv2d(\n      (conv):\
    \ Conv2d(192, 48, kernel_size=(1, 1), stride=(1, 1), bias=False)\n      (bn):\
    \ BatchNorm2d(48, eps=0.001, momentum=0.1, affine=True, track_running_stats=True)\n\
    \    )\n    (branch5x5_2): BasicConv2d(\n      (conv): Conv2d(48, 64, kernel_size=(5,\
    \ 5), stride=(1, 1), padding=(2, 2), bias=False)\n      (bn): BatchNorm2d(64,\
    \ eps=0.001, momentum=0.1, affine=True, track_running_stats=True)\n    )\n   \
    \ (branch3x3dbl_1): BasicConv2d(\n      (conv): Conv2d(192, 64, kernel_size=(1,\
    \ 1), stride=(1, 1), bias=False)\n      (bn): BatchNorm2d(64, eps=0.001, momentum=0.1,\
    \ affine=True, track_running_stats=True)\n    )\n    (branch3x3dbl_2): BasicConv2d(\n\
    \      (conv): Conv2d(64, 96, kernel_size=(3, 3), stride=(1, 1), padding=(1, 1),\
    \ bias=False)\n      (bn): BatchNorm2d(96, eps=0.001, momentum=0.1, affine=True,\
    \ track_running_stats=True)\n    )\n    (branch3x3dbl_3): BasicConv2d(\n     \
    \ (conv): Conv2d(96, 96, kernel_size=(3, 3), stride=(1, 1), padding=(1, 1), bias=False)\n\
    \      (bn): BatchNorm2d(96, eps=0.001, momentum=0.1, affine=True, track_running_stats=True)\n\
    \    )\n    (branch_pool): BasicConv2d(\n      (conv): Conv2d(192, 32, kernel_size=(1,\
    \ 1), stride=(1, 1), bias=False)\n      (bn): BatchNorm2d(32, eps=0.001, momentum=0.1,\
    \ affine=True, track_running_stats=True)\n    )\n  )\n  (Mixed_5c): InceptionA(\n\
    \    (branch1x1): BasicConv2d(\n      (conv): Conv2d(256, 64, kernel_size=(1,\
    \ 1), stride=(1, 1), bias=False)\n      (bn): BatchNorm2d(64, eps=0.001, momentum=0.1,\
    \ affine=True, track_running_stats=True)\n    )\n    (branch5x5_1): BasicConv2d(\n\
    \      (conv): Conv2d(256, 48, kernel_size=(1, 1), stride=(1, 1), bias=False)\n\
    \      (bn): BatchNorm2d(48, eps=0.001, momentum=0.1, affine=True, track_running_stats=True)\n\
    \    )\n    (branch5x5_2): BasicConv2d(\n      (conv): Conv2d(48, 64, kernel_size=(5,\
    \ 5), stride=(1, 1), padding=(2, 2), bias=False)\n      (bn): BatchNorm2d(64,\
    \ eps=0.001, momentum=0.1, affine=True, track_running_stats=True)\n    )\n   \
    \ (branch3x3dbl_1): BasicConv2d(\n      (conv): Conv2d(256, 64, kernel_size=(1,\
    \ 1), stride=(1, 1), bias=False)\n      (bn): BatchNorm2d(64, eps=0.001, momentum=0.1,\
    \ affine=True, track_running_stats=True)\n    )\n    (branch3x3dbl_2): BasicConv2d(\n\
    \      (conv): Conv2d(64, 96, kernel_size=(3, 3), stride=(1, 1), padding=(1, 1),\
    \ bias=False)\n      (bn): BatchNorm2d(96, eps=0.001, momentum=0.1, affine=True,\
    \ track_running_stats=True)\n    )\n    (branch3x3dbl_3): BasicConv2d(\n     \
    \ (conv): Conv2d(96, 96, kernel_size=(3, 3), stride=(1, 1), padding=(1, 1), bias=False)\n\
    \      (bn): BatchNorm2d(96, eps=0.001, momentum=0.1, affine=True, track_running_stats=True)\n\
    \    )\n    (branch_pool): BasicConv2d(\n      (conv): Conv2d(256, 64, kernel_size=(1,\
    \ 1), stride=(1, 1), bias=False)\n      (bn): BatchNorm2d(64, eps=0.001, momentum=0.1,\
    \ affine=True, track_running_stats=True)\n    )\n  )\n  (Mixed_5d): InceptionA(\n\
    \    (branch1x1): BasicConv2d(\n      (conv): Conv2d(288, 64, kernel_size=(1,\
    \ 1), stride=(1, 1), bias=False)\n      (bn): BatchNorm2d(64, eps=0.001, momentum=0.1,\
    \ affine=True, track_running_stats=True)\n    )\n    (branch5x5_1): BasicConv2d(\n\
    \      (conv): Conv2d(288, 48, kernel_size=(1, 1), stride=(1, 1), bias=False)\n\
    \      (bn): BatchNorm2d(48, eps=0.001, momentum=0.1, affine=True, track_running_stats=True)\n\
    \    )\n    (branch5x5_2): BasicConv2d(\n      (conv): Conv2d(48, 64, kernel_size=(5,\
    \ 5), stride=(1, 1), padding=(2, 2), bias=False)\n      (bn): BatchNorm2d(64,\
    \ eps=0.001, momentum=0.1, affine=True, track_running_stats=True)\n    )\n   \
    \ (branch3x3dbl_1): BasicConv2d(\n      (conv): Conv2d(288, 64, kernel_size=(1,\
    \ 1), stride=(1, 1), bias=False)\n      (bn): BatchNorm2d(64, eps=0.001, momentum=0.1,\
    \ affine=True, track_running_stats=True)\n    )\n    (branch3x3dbl_2): BasicConv2d(\n\
    \      (conv): Conv2d(64, 96, kernel_size=(3, 3), stride=(1, 1), padding=(1, 1),\
    \ bias=False)\n      (bn): BatchNorm2d(96, eps=0.001, momentum=0.1, affine=True,\
    \ track_running_stats=True)\n    )\n    (branch3x3dbl_3): BasicConv2d(\n     \
    \ (conv): Conv2d(96, 96, kernel_size=(3, 3), stride=(1, 1), padding=(1, 1), bias=False)\n\
    \      (bn): BatchNorm2d(96, eps=0.001, momentum=0.1, affine=True, track_running_stats=True)\n\
    \    )\n    (branch_pool): BasicConv2d(\n      (conv): Conv2d(288, 64, kernel_size=(1,\
    \ 1), stride=(1, 1), bias=False)\n      (bn): BatchNorm2d(64, eps=0.001, momentum=0.1,\
    \ affine=True, track_running_stats=True)\n    )\n  )\n  (Mixed_6a): InceptionB(\n\
    \    (branch3x3): BasicConv2d(\n      (conv): Conv2d(288, 384, kernel_size=(3,\
    \ 3), stride=(2, 2), bias=False)\n      (bn): BatchNorm2d(384, eps=0.001, momentum=0.1,\
    \ affine=True, track_running_stats=True)\n    )\n    (branch3x3dbl_1): BasicConv2d(\n\
    \      (conv): Conv2d(288, 64, kernel_size=(1, 1), stride=(1, 1), bias=False)\n\
    \      (bn): BatchNorm2d(64, eps=0.001, momentum=0.1, affine=True, track_running_stats=True)\n\
    \    )\n    (branch3x3dbl_2): BasicConv2d(\n      (conv): Conv2d(64, 96, kernel_size=(3,\
    \ 3), stride=(1, 1), padding=(1, 1), bias=False)\n      (bn): BatchNorm2d(96,\
    \ eps=0.001, momentum=0.1, affine=True, track_running_stats=True)\n    )\n   \
    \ (branch3x3dbl_3): BasicConv2d(\n      (conv): Conv2d(96, 96, kernel_size=(3,\
    \ 3), stride=(2, 2), bias=False)\n      (bn): BatchNorm2d(96, eps=0.001, momentum=0.1,\
    \ affine=True, track_running_stats=True)\n    )\n  )\n  (Mixed_6b): InceptionC(\n\
    \    (branch1x1): BasicConv2d(\n      (conv): Conv2d(768, 192, kernel_size=(1,\
    \ 1), stride=(1, 1), bias=False)\n      (bn): BatchNorm2d(192, eps=0.001, momentum=0.1,\
    \ affine=True, track_running_stats=True)\n    )\n    (branch7x7_1): BasicConv2d(\n\
    \      (conv): Conv2d(768, 128, kernel_size=(1, 1), stride=(1, 1), bias=False)\n\
    \      (bn): BatchNorm2d(128, eps=0.001, momentum=0.1, affine=True, track_running_stats=True)\n\
    \    )\n    (branch7x7_2): BasicConv2d(\n      (conv): Conv2d(128, 128, kernel_size=(1,\
    \ 7), stride=(1, 1), padding=(0, 3), bias=False)\n      (bn): BatchNorm2d(128,\
    \ eps=0.001, momentum=0.1, affine=True, track_running_stats=True)\n    )\n   \
    \ (branch7x7_3): BasicConv2d(\n      (conv): Conv2d(128, 192, kernel_size=(7,\
    \ 1), stride=(1, 1), padding=(3, 0), bias=False)\n      (bn): BatchNorm2d(192,\
    \ eps=0.001, momentum=0.1, affine=True, track_running_stats=True)\n    )\n   \
    \ (branch7x7dbl_1): BasicConv2d(\n      (conv): Conv2d(768, 128, kernel_size=(1,\
    \ 1), stride=(1, 1), bias=False)\n      (bn): BatchNorm2d(128, eps=0.001, momentum=0.1,\
    \ affine=True, track_running_stats=True)\n    )\n    (branch7x7dbl_2): BasicConv2d(\n\
    \      (conv): Conv2d(128, 128, kernel_size=(7, 1), stride=(1, 1), padding=(3,\
    \ 0), bias=False)\n      (bn): BatchNorm2d(128, eps=0.001, momentum=0.1, affine=True,\
    \ track_running_stats=True)\n    )\n    (branch7x7dbl_3): BasicConv2d(\n     \
    \ (conv): Conv2d(128, 128, kernel_size=(1, 7), stride=(1, 1), padding=(0, 3),\
    \ bias=False)\n      (bn): BatchNorm2d(128, eps=0.001, momentum=0.1, affine=True,\
    \ track_running_stats=True)\n    )\n    (branch7x7dbl_4): BasicConv2d(\n     \
    \ (conv): Conv2d(128, 128, kernel_size=(7, 1), stride=(1, 1), padding=(3, 0),\
    \ bias=False)\n      (bn): BatchNorm2d(128, eps=0.001, momentum=0.1, affine=True,\
    \ track_running_stats=True)\n    )\n    (branch7x7dbl_5): BasicConv2d(\n     \
    \ (conv): Conv2d(128, 192, kernel_size=(1, 7), stride=(1, 1), padding=(0, 3),\
    \ bias=False)\n      (bn): BatchNorm2d(192, eps=0.001, momentum=0.1, affine=True,\
    \ track_running_stats=True)\n    )\n    (branch_pool): BasicConv2d(\n      (conv):\
    \ Conv2d(768, 192, kernel_size=(1, 1), stride=(1, 1), bias=False)\n      (bn):\
    \ BatchNorm2d(192, eps=0.001, momentum=0.1, affine=True, track_running_stats=True)\n\
    \    )\n  )\n  (Mixed_6c): InceptionC(\n    (branch1x1): BasicConv2d(\n      (conv):\
    \ Conv2d(768, 192, kernel_size=(1, 1), stride=(1, 1), bias=False)\n      (bn):\
    \ BatchNorm2d(192, eps=0.001, momentum=0.1, affine=True, track_running_stats=True)\n\
    \    )\n    (branch7x7_1): BasicConv2d(\n      (conv): Conv2d(768, 160, kernel_size=(1,\
    \ 1), stride=(1, 1), bias=False)\n      (bn): BatchNorm2d(160, eps=0.001, momentum=0.1,\
    \ affine=True, track_running_stats=True)\n    )\n    (branch7x7_2): BasicConv2d(\n\
    \      (conv): Conv2d(160, 160, kernel_size=(1, 7), stride=(1, 1), padding=(0,\
    \ 3), bias=False)\n      (bn): BatchNorm2d(160, eps=0.001, momentum=0.1, affine=True,\
    \ track_running_stats=True)\n    )\n    (branch7x7_3): BasicConv2d(\n      (conv):\
    \ Conv2d(160, 192, kernel_size=(7, 1), stride=(1, 1), padding=(3, 0), bias=False)\n\
    \      (bn): BatchNorm2d(192, eps=0.001, momentum=0.1, affine=True, track_running_stats=True)\n\
    \    )\n    (branch7x7dbl_1): BasicConv2d(\n      (conv): Conv2d(768, 160, kernel_size=(1,\
    \ 1), stride=(1, 1), bias=False)\n      (bn): BatchNorm2d(160, eps=0.001, momentum=0.1,\
    \ affine=True, track_running_stats=True)\n    )\n    (branch7x7dbl_2): BasicConv2d(\n\
    \      (conv): Conv2d(160, 160, kernel_size=(7, 1), stride=(1, 1), padding=(3,\
    \ 0), bias=False)\n      (bn): BatchNorm2d(160, eps=0.001, momentum=0.1, affine=True,\
    \ track_running_stats=True)\n    )\n    (branch7x7dbl_3): BasicConv2d(\n     \
    \ (conv): Conv2d(160, 160, kernel_size=(1, 7), stride=(1, 1), padding=(0, 3),\
    \ bias=False)\n      (bn): BatchNorm2d(160, eps=0.001, momentum=0.1, affine=True,\
    \ track_running_stats=True)\n    )\n    (branch7x7dbl_4): BasicConv2d(\n     \
    \ (conv): Conv2d(160, 160, kernel_size=(7, 1), stride=(1, 1), padding=(3, 0),\
    \ bias=False)\n      (bn): BatchNorm2d(160, eps=0.001, momentum=0.1, affine=True,\
    \ track_running_stats=True)\n    )\n    (branch7x7dbl_5): BasicConv2d(\n     \
    \ (conv): Conv2d(160, 192, kernel_size=(1, 7), stride=(1, 1), padding=(0, 3),\
    \ bias=False)\n      (bn): BatchNorm2d(192, eps=0.001, momentum=0.1, affine=True,\
    \ track_running_stats=True)\n    )\n    (branch_pool): BasicConv2d(\n      (conv):\
    \ Conv2d(768, 192, kernel_size=(1, 1), stride=(1, 1), bias=False)\n      (bn):\
    \ BatchNorm2d(192, eps=0.001, momentum=0.1, affine=True, track_running_stats=True)\n\
    \    )\n  )\n  (Mixed_6d): InceptionC(\n    (branch1x1): BasicConv2d(\n      (conv):\
    \ Conv2d(768, 192, kernel_size=(1, 1), stride=(1, 1), bias=False)\n      (bn):\
    \ BatchNorm2d(192, eps=0.001, momentum=0.1, affine=True, track_running_stats=True)\n\
    \    )\n    (branch7x7_1): BasicConv2d(\n      (conv): Conv2d(768, 160, kernel_size=(1,\
    \ 1), stride=(1, 1), bias=False)\n      (bn): BatchNorm2d(160, eps=0.001, momentum=0.1,\
    \ affine=True, track_running_stats=True)\n    )\n    (branch7x7_2): BasicConv2d(\n\
    \      (conv): Conv2d(160, 160, kernel_size=(1, 7), stride=(1, 1), padding=(0,\
    \ 3), bias=False)\n      (bn): BatchNorm2d(160, eps=0.001, momentum=0.1, affine=True,\
    \ track_running_stats=True)\n    )\n    (branch7x7_3): BasicConv2d(\n      (conv):\
    \ Conv2d(160, 192, kernel_size=(7, 1), stride=(1, 1), padding=(3, 0), bias=False)\n\
    \      (bn): BatchNorm2d(192, eps=0.001, momentum=0.1, affine=True, track_running_stats=True)\n\
    \    )\n    (branch7x7dbl_1): BasicConv2d(\n      (conv): Conv2d(768, 160, kernel_size=(1,\
    \ 1), stride=(1, 1), bias=False)\n      (bn): BatchNorm2d(160, eps=0.001, momentum=0.1,\
    \ affine=True, track_running_stats=True)\n    )\n    (branch7x7dbl_2): BasicConv2d(\n\
    \      (conv): Conv2d(160, 160, kernel_size=(7, 1), stride=(1, 1), padding=(3,\
    \ 0), bias=False)\n      (bn): BatchNorm2d(160, eps=0.001, momentum=0.1, affine=True,\
    \ track_running_stats=True)\n    )\n    (branch7x7dbl_3): BasicConv2d(\n     \
    \ (conv): Conv2d(160, 160, kernel_size=(1, 7), stride=(1, 1), padding=(0, 3),\
    \ bias=False)\n      (bn): BatchNorm2d(160, eps=0.001, momentum=0.1, affine=True,\
    \ track_running_stats=True)\n    )\n    (branch7x7dbl_4): BasicConv2d(\n     \
    \ (conv): Conv2d(160, 160, kernel_size=(7, 1), stride=(1, 1), padding=(3, 0),\
    \ bias=False)\n      (bn): BatchNorm2d(160, eps=0.001, momentum=0.1, affine=True,\
    \ track_running_stats=True)\n    )\n    (branch7x7dbl_5): BasicConv2d(\n     \
    \ (conv): Conv2d(160, 192, kernel_size=(1, 7), stride=(1, 1), padding=(0, 3),\
    \ bias=False)\n      (bn): BatchNorm2d(192, eps=0.001, momentum=0.1, affine=True,\
    \ track_running_stats=True)\n    )\n    (branch_pool): BasicConv2d(\n      (conv):\
    \ Conv2d(768, 192, kernel_size=(1, 1), stride=(1, 1), bias=False)\n      (bn):\
    \ BatchNorm2d(192, eps=0.001, momentum=0.1, affine=True, track_running_stats=True)\n\
    \    )\n  )\n  (Mixed_6e): InceptionC(\n    (branch1x1): BasicConv2d(\n      (conv):\
    \ Conv2d(768, 192, kernel_size=(1, 1), stride=(1, 1), bias=False)\n      (bn):\
    \ BatchNorm2d(192, eps=0.001, momentum=0.1, affine=True, track_running_stats=True)\n\
    \    )\n    (branch7x7_1): BasicConv2d(\n      (conv): Conv2d(768, 192, kernel_size=(1,\
    \ 1), stride=(1, 1), bias=False)\n      (bn): BatchNorm2d(192, eps=0.001, momentum=0.1,\
    \ affine=True, track_running_stats=True)\n    )\n    (branch7x7_2): BasicConv2d(\n\
    \      (conv): Conv2d(192, 192, kernel_size=(1, 7), stride=(1, 1), padding=(0,\
    \ 3), bias=False)\n      (bn): BatchNorm2d(192, eps=0.001, momentum=0.1, affine=True,\
    \ track_running_stats=True)\n    )\n    (branch7x7_3): BasicConv2d(\n      (conv):\
    \ Conv2d(192, 192, kernel_size=(7, 1), stride=(1, 1), padding=(3, 0), bias=False)\n\
    \      (bn): BatchNorm2d(192, eps=0.001, momentum=0.1, affine=True, track_running_stats=True)\n\
    \    )\n    (branch7x7dbl_1): BasicConv2d(\n      (conv): Conv2d(768, 192, kernel_size=(1,\
    \ 1), stride=(1, 1), bias=False)\n      (bn): BatchNorm2d(192, eps=0.001, momentum=0.1,\
    \ affine=True, track_running_stats=True)\n    )\n    (branch7x7dbl_2): BasicConv2d(\n\
    \      (conv): Conv2d(192, 192, kernel_size=(7, 1), stride=(1, 1), padding=(3,\
    \ 0), bias=False)\n      (bn): BatchNorm2d(192, eps=0.001, momentum=0.1, affine=True,\
    \ track_running_stats=True)\n    )\n    (branch7x7dbl_3): BasicConv2d(\n     \
    \ (conv): Conv2d(192, 192, kernel_size=(1, 7), stride=(1, 1), padding=(0, 3),\
    \ bias=False)\n      (bn): BatchNorm2d(192, eps=0.001, momentum=0.1, affine=True,\
    \ track_running_stats=True)\n    )\n    (branch7x7dbl_4): BasicConv2d(\n     \
    \ (conv): Conv2d(192, 192, kernel_size=(7, 1), stride=(1, 1), padding=(3, 0),\
    \ bias=False)\n      (bn): BatchNorm2d(192, eps=0.001, momentum=0.1, affine=True,\
    \ track_running_stats=True)\n    )\n    (branch7x7dbl_5): BasicConv2d(\n     \
    \ (conv): Conv2d(192, 192, kernel_size=(1, 7), stride=(1, 1), padding=(0, 3),\
    \ bias=False)\n      (bn): BatchNorm2d(192, eps=0.001, momentum=0.1, affine=True,\
    \ track_running_stats=True)\n    )\n    (branch_pool): BasicConv2d(\n      (conv):\
    \ Conv2d(768, 192, kernel_size=(1, 1), stride=(1, 1), bias=False)\n      (bn):\
    \ BatchNorm2d(192, eps=0.001, momentum=0.1, affine=True, track_running_stats=True)\n\
    \    )\n  )\n  (AuxLogits): InceptionAux(\n    (conv0): BasicConv2d(\n      (conv):\
    \ Conv2d(768, 128, kernel_size=(1, 1), stride=(1, 1), bias=False)\n      (bn):\
    \ BatchNorm2d(128, eps=0.001, momentum=0.1, affine=True, track_running_stats=True)\n\
    \    )\n    (conv1): BasicConv2d(\n      (conv): Conv2d(128, 768, kernel_size=(5,\
    \ 5), stride=(1, 1), bias=False)\n      (bn): BatchNorm2d(768, eps=0.001, momentum=0.1,\
    \ affine=True, track_running_stats=True)\n    )\n    (fc): Linear(in_features=768,\
    \ out_features=10, bias=True)\n  )\n  (Mixed_7a): InceptionD(\n    (branch3x3_1):\
    \ BasicConv2d(\n      (conv): Conv2d(768, 192, kernel_size=(1, 1), stride=(1,\
    \ 1), bias=False)\n      (bn): BatchNorm2d(192, eps=0.001, momentum=0.1, affine=True,\
    \ track_running_stats=True)\n    )\n    (branch3x3_2): BasicConv2d(\n      (conv):\
    \ Conv2d(192, 320, kernel_size=(3, 3), stride=(2, 2), bias=False)\n      (bn):\
    \ BatchNorm2d(320, eps=0.001, momentum=0.1, affine=True, track_running_stats=True)\n\
    \    )\n    (branch7x7x3_1): BasicConv2d(\n      (conv): Conv2d(768, 192, kernel_size=(1,\
    \ 1), stride=(1, 1), bias=False)\n      (bn): BatchNorm2d(192, eps=0.001, momentum=0.1,\
    \ affine=True, track_running_stats=True)\n    )\n    (branch7x7x3_2): BasicConv2d(\n\
    \      (conv): Conv2d(192, 192, kernel_size=(1, 7), stride=(1, 1), padding=(0,\
    \ 3), bias=False)\n      (bn): BatchNorm2d(192, eps=0.001, momentum=0.1, affine=True,\
    \ track_running_stats=True)\n    )\n    (branch7x7x3_3): BasicConv2d(\n      (conv):\
    \ Conv2d(192, 192, kernel_size=(7, 1), stride=(1, 1), padding=(3, 0), bias=False)\n\
    \      (bn): BatchNorm2d(192, eps=0.001, momentum=0.1, affine=True, track_running_stats=True)\n\
    \    )\n    (branch7x7x3_4): BasicConv2d(\n      (conv): Conv2d(192, 192, kernel_size=(3,\
    \ 3), stride=(2, 2), bias=False)\n      (bn): BatchNorm2d(192, eps=0.001, momentum=0.1,\
    \ affine=True, track_running_stats=True)\n    )\n  )\n  (Mixed_7b): InceptionE(\n\
    \    (branch1x1): BasicConv2d(\n      (conv): Conv2d(1280, 320, kernel_size=(1,\
    \ 1), stride=(1, 1), bias=False)\n      (bn): BatchNorm2d(320, eps=0.001, momentum=0.1,\
    \ affine=True, track_running_stats=True)\n    )\n    (branch3x3_1): BasicConv2d(\n\
    \      (conv): Conv2d(1280, 384, kernel_size=(1, 1), stride=(1, 1), bias=False)\n\
    \      (bn): BatchNorm2d(384, eps=0.001, momentum=0.1, affine=True, track_running_stats=True)\n\
    \    )\n    (branch3x3_2a): BasicConv2d(\n      (conv): Conv2d(384, 384, kernel_size=(1,\
    \ 3), stride=(1, 1), padding=(0, 1), bias=False)\n      (bn): BatchNorm2d(384,\
    \ eps=0.001, momentum=0.1, affine=True, track_running_stats=True)\n    )\n   \
    \ (branch3x3_2b): BasicConv2d(\n      (conv): Conv2d(384, 384, kernel_size=(3,\
    \ 1), stride=(1, 1), padding=(1, 0), bias=False)\n      (bn): BatchNorm2d(384,\
    \ eps=0.001, momentum=0.1, affine=True, track_running_stats=True)\n    )\n   \
    \ (branch3x3dbl_1): BasicConv2d(\n      (conv): Conv2d(1280, 448, kernel_size=(1,\
    \ 1), stride=(1, 1), bias=False)\n      (bn): BatchNorm2d(448, eps=0.001, momentum=0.1,\
    \ affine=True, track_running_stats=True)\n    )\n    (branch3x3dbl_2): BasicConv2d(\n\
    \      (conv): Conv2d(448, 384, kernel_size=(3, 3), stride=(1, 1), padding=(1,\
    \ 1), bias=False)\n      (bn): BatchNorm2d(384, eps=0.001, momentum=0.1, affine=True,\
    \ track_running_stats=True)\n    )\n    (branch3x3dbl_3a): BasicConv2d(\n    \
    \  (conv): Conv2d(384, 384, kernel_size=(1, 3), stride=(1, 1), padding=(0, 1),\
    \ bias=False)\n      (bn): BatchNorm2d(384, eps=0.001, momentum=0.1, affine=True,\
    \ track_running_stats=True)\n    )\n    (branch3x3dbl_3b): BasicConv2d(\n    \
    \  (conv): Conv2d(384, 384, kernel_size=(3, 1), stride=(1, 1), padding=(1, 0),\
    \ bias=False)\n      (bn): BatchNorm2d(384, eps=0.001, momentum=0.1, affine=True,\
    \ track_running_stats=True)\n    )\n    (branch_pool): BasicConv2d(\n      (conv):\
    \ Conv2d(1280, 192, kernel_size=(1, 1), stride=(1, 1), bias=False)\n      (bn):\
    \ BatchNorm2d(192, eps=0.001, momentum=0.1, affine=True, track_running_stats=True)\n\
    \    )\n  )\n  (Mixed_7c): InceptionE(\n    (branch1x1): BasicConv2d(\n      (conv):\
    \ Conv2d(2048, 320, kernel_size=(1, 1), stride=(1, 1), bias=False)\n      (bn):\
    \ BatchNorm2d(320, eps=0.001, momentum=0.1, affine=True, track_running_stats=True)\n\
    \    )\n    (branch3x3_1): BasicConv2d(\n      (conv): Conv2d(2048, 384, kernel_size=(1,\
    \ 1), stride=(1, 1), bias=False)\n      (bn): BatchNorm2d(384, eps=0.001, momentum=0.1,\
    \ affine=True, track_running_stats=True)\n    )\n    (branch3x3_2a): BasicConv2d(\n\
    \      (conv): Conv2d(384, 384, kernel_size=(1, 3), stride=(1, 1), padding=(0,\
    \ 1), bias=False)\n      (bn): BatchNorm2d(384, eps=0.001, momentum=0.1, affine=True,\
    \ track_running_stats=True)\n    )\n    (branch3x3_2b): BasicConv2d(\n      (conv):\
    \ Conv2d(384, 384, kernel_size=(3, 1), stride=(1, 1), padding=(1, 0), bias=False)\n\
    \      (bn): BatchNorm2d(384, eps=0.001, momentum=0.1, affine=True, track_running_stats=True)\n\
    \    )\n    (branch3x3dbl_1): BasicConv2d(\n      (conv): Conv2d(2048, 448, kernel_size=(1,\
    \ 1), stride=(1, 1), bias=False)\n      (bn): BatchNorm2d(448, eps=0.001, momentum=0.1,\
    \ affine=True, track_running_stats=True)\n    )\n    (branch3x3dbl_2): BasicConv2d(\n\
    \      (conv): Conv2d(448, 384, kernel_size=(3, 3), stride=(1, 1), padding=(1,\
    \ 1), bias=False)\n      (bn): BatchNorm2d(384, eps=0.001, momentum=0.1, affine=True,\
    \ track_running_stats=True)\n    )\n    (branch3x3dbl_3a): BasicConv2d(\n    \
    \  (conv): Conv2d(384, 384, kernel_size=(1, 3), stride=(1, 1), padding=(0, 1),\
    \ bias=False)\n      (bn): BatchNorm2d(384, eps=0.001, momentum=0.1, affine=True,\
    \ track_running_stats=True)\n    )\n    (branch3x3dbl_3b): BasicConv2d(\n    \
    \  (conv): Conv2d(384, 384, kernel_size=(3, 1), stride=(1, 1), padding=(1, 0),\
    \ bias=False)\n      (bn): BatchNorm2d(384, eps=0.001, momentum=0.1, affine=True,\
    \ track_running_stats=True)\n    )\n    (branch_pool): BasicConv2d(\n      (conv):\
    \ Conv2d(2048, 192, kernel_size=(1, 1), stride=(1, 1), bias=False)\n      (bn):\
    \ BatchNorm2d(192, eps=0.001, momentum=0.1, affine=True, track_running_stats=True)\n\
    \    )\n  )\n  (avgpool): AdaptiveAvgPool2d(output_size=(1, 1))\n  (dropout):\
    \ Dropout(p=0.5, inplace=False)\n  (fc): Linear(in_features=2048, out_features=10,\
    \ bias=True)\n)</pre>\n</div>\n</div>\n</div>\n</div>\n</div>\n<div class=\"cell\
    \ border-box-sizing code_cell rendered\">\n<div class=\"input\">\n<div class=\"\
    prompt input_prompt\">In\_[\_]:</div>\n<div class=\"inner_cell\">\n<div class=\"\
    input_area\">\n<div class=\"highlight hl-python\"><pre><span></span><span class=\"\
    n\">trainer</span><span class=\"o\">.</span><span class=\"n\">train</span><span\
…
